tmp/stf_model.pth (torch, 494522 bytes, 134 tensors)

spacetimeformer.enc_embedding.time_emb.embed_weight f4 [3, 1]
000000 ec 77 b1 be 5d 01 6a be cb d8 92 be
       -0.34661806 -0.22852083 -0.28681025

spacetimeformer.enc_embedding.time_emb.embed_bias f4 [3, 1]
000000 86 23 ab 3f 37 ac b6 3f 4a 8e 91 3f
       1.3370216 1.4271306 1.1371548

spacetimeformer.enc_embedding.local_emb.embed_weight f4 [1, 51]
000000 52 1f 94 3f 1a 58 73 bd d6 bb 83 bf b1 17 b4 3e
       1.1572058 -0.059410192 -1.0291698 0.35174325
000010 6a 40 b4 3e 0a 48 31 bf 5b b4 ac 3f b1 74 25 bf
       0.35205394 -0.6925055 1.349254 -0.6463118
000020 61 d4 aa bf c0 1b 97 bf 64 09 48 bf 2f 5f 92 3e
       -1.3346063 -1.1805344 -0.7813933 0.28588244
000030 b7 a7 c4 be a6 1a 22 bf 02 d9 e0 3e 47 35 c1 bf
       -0.38409206 -0.6332191 0.43915564 -1.5094384
000040 78 4d 4b 3e 73 3e ac 3d df 20 4d 3f bd ed 31 3f
       0.1985377 0.08410349 0.8012828 0.69503385
000050 cc de 55 bf 92 0a b4 3f 49 ff 0d bf 80 58 81 3e
       -0.83543086 1.4065726 -0.5546766 0.25262833
000060 bd a7 5d bf 45 85 39 bf b0 3c 41 3f 7c c1 c2 3e
       -0.86584073 -0.7246898 0.75483227 0.38038242
000070 73 3f 21 3f e8 01 11 bf cd 9e 01 40 0f ac 31 bc
       0.6298744 -0.56643534 2.0253174 -0.010844245
000080 b5 9f ab 3f 47 6a 14 bf 41 4e 61 bf e6 44 16 3f
       1.3408114 -0.57974666 -0.8801003 0.5869888
000090 ce 7c 9e 3f 14 3e 49 3e 0a cc 27 40 2b 5d 47 3d
       1.2381837 0.19652587 2.6218286 0.048672836
0000a0 8e b1 9d 3f 04 60 aa bf 13 ae a4 3d 59 06 6e bf
       1.231981 -1.3310552 0.080410145 -0.92978436
0000b0 a6 40 88 bd c8 9a af bf 8e d2 99 3f 4e a6 09 40
       -0.06652956 -1.371911 1.2017381 2.1507754
0000c0 5c fc 49 bf 93 33 a0 3e 8e c4 4d 3f
       -0.78900695 0.31289348 0.80378044

spacetimeformer.enc_embedding.local_emb.embed_bias f4 [1, 51]
000000 f3 22 9f 3e d5 77 3a bf 02 4c 9a bc fd a5 6b 3e
       0.31081352 -0.728391 -0.018835071 0.23012538
000010 47 d7 7c be 8a f0 8d bf d8 de 1f 3f 6a a2 57 be
       -0.24691497 -1.1089032 0.6244941 -0.2105805
000020 0e ba af bf a1 f7 3c 3e cc 4d 08 bf 6f 25 cd be
       -1.3728654 0.18453838 -0.5324371 -0.40067622
000030 cd eb 0f bf 37 c3 fa 3d 73 78 e2 3f 00 74 b9 3e
       -0.5621918 0.122442655 1.7693008 0.36221313
000040 14 96 82 3e 69 7a 5d be be 68 e8 3f c1 06 a3 bf
       0.25505126 -0.21628727 1.8156965 -1.2736436
000050 9c f3 47 3f ea e5 e7 3d 8a 08 77 3f d0 bc 70 be
       0.78106093 0.113231495 0.96497405 -0.23509526
000060 07 0f c1 3f 4b 0c ad 3f 2d 84 9d 3f c8 c0 2b bf
       1.5082711 1.3519377 1.2305962 -0.67091036
000070 79 6d fd 3e e0 f7 06 40 7e 81 40 bd 60 c9 c2 bf
       0.49497584 2.108879 -0.046998493 -1.5217705
000080 d7 b6 8c 3f 6c db 20 3f c4 81 f2 bd d3 4d 52 3f
       1.0993298 0.6283481 -0.11841157 0.8215
000090 4e cb 17 3f 18 c7 39 3f 92 47 c3 bf b2 91 e0 3f
       0.59294593 0.7256942 -1.5256217 1.7544463
0000a0 29 6e d9 3f 9f ca 76 bf 2b 95 77 3f bd 2c 05 3f
       1.6986743 -0.96402925 0.9671199 0.5202139
0000b0 14 c8 83 3f f2 f5 96 bf 57 b4 00 c0 4d 77 37 bf
       1.0295434 -1.1793807 -2.011007 -0.71666414
0000c0 72 36 99 3f 69 4d 05 bf ce 48 26 3f
       1.196974 -0.52071244 0.6495484

spacetimeformer.enc_embedding.val_time_emb.weight f4 [50, 4]
000000 db 52 0f 3d a4 3c ae be db 53 05 3e 85 f3 6c 3d
       0.034991127 -0.3403064 0.1302027 0.057849426
000010 b9 f9 d8 3d c9 5c 86 3e fb 6d d9 be bc 65 31 be
       0.10594506 0.26242664 -0.4246672 -0.17323965
000020 97 07 5f be 04 f8 ac be 14 74 8d be 3a 75 a9 3b
       -0.21780239 -0.3378297 -0.27627623 0.005171445
000030 61 1a f4 3e 27 f6 51 be 97 bd 79 bd 46 12 a3 bd
       0.47676376 -0.20504056 -0.060971823 -0.0796247
000040 b8 d0 d9 bd 48 14 bf be c8 12 c6 3e d0 b4 ec be
       -0.10635513 -0.3732016 0.38686204 -0.462317
000050 d6 8a c8 3e aa 4f d3 3e 2a a2 eb bd fc cc 1b 3e
       0.39168423 0.41271716 -0.1150554 0.15214914
000060 58 ec 41 be e6 9d 8b 3e 3c 01 45 3e bc 2b 4a be
       -0.18937814 0.27268904 0.19238752 -0.19743246
000070 e9 75 33 3e 64 12 de 3e 6e 25 c5 3d b7 2a 7c bd
       0.17525448 0.43373406 0.0962628 -0.061564174
000080 c2 14 a4 be a7 47 0a 3e 84 88 58 3c 76 a5 cd 3e
       -0.32047087 0.13503896 0.013216142 0.401653
000090 3a a9 26 3e 06 4b 9b 3e df c3 ba bd 0e 91 9d 3d
       0.16275492 0.30330676 -0.09119391 0.076936826
0000a0 3e ac e6 be 8f 9c 9e 3e fb 0d a5 3e 54 7f 9c 3d
       -0.45053285 0.3097882 0.3223723 0.076414734
0000b0 70 94 f4 3e 7d 7e b4 bc 39 58 6d be 44 d3 d8 3e
       0.477695 -0.02203297 -0.23178186 0.42348683
0000c0 f3 1c c4 bc 8a 55 da 3d af 66 a8 be 41 dd 9e 3d
       -0.023939585 0.106608465 -0.3289084 0.077570446
0000d0 c5 df d1 be 58 48 c4 3c 85 39 e4 3d 91 f6 fb 3e
       -0.40991035 0.023960277 0.111437835 0.49211553
0000e0 33 d0 3b 3e dc 91 79 be e5 a2 54 3e a5 d1 83 3d
       0.1834114 -0.24372047 0.20765264 0.06436471
0000f0 c0 ab a4 be 1c af ea be a2 3b 15 3e 00 d3 83 3e
       -0.32162285 -0.45836723 0.1457353 0.25746918
000100 4f f3 ce be 57 dc 19 ba 05 4b 65 be ec f3 de be
       -0.40420005 -0.000586932 -0.22391899 -0.43545473
000110 cc 27 85 be 40 41 90 3e 85 ab 49 3e 62 3f e0 be
       -0.26006925 0.28174782 0.19694336 -0.43798357
000120 48 d3 83 3e 96 ca 1f be ee 5d a8 3d 70 a8 f1 3d
       0.25747132 -0.15604624 0.08221041 0.11799705
000130 f2 d1 91 3e b2 2e 84 3d b3 b1 f0 3e d9 42 7d 3e
       0.28480488 0.06454219 0.47010574 0.24732532
000140 fe bb 0f 3e 5c 30 e9 3e e8 b6 9e 3e de 16 a5 3e
       0.14036557 0.45544708 0.3099892 0.3224401
000150 7e 42 d2 3e 4d 78 b5 3e f0 b7 93 3e ae 79 f2 be
       0.41066355 0.35443345 0.2885127 -0.4735846
000160 f6 ad b3 be d9 68 f5 3e e2 c6 b9 3e 1f ad c2 3e
       -0.3509366 0.47931555 0.36284548 0.38022706
000170 ff 83 3f 3e bf 2b da be b1 4c 3e 3e ac ba 79 be
       0.18702696 -0.426115 0.18583943 -0.24387616
000180 9e 24 ba 3d 3d cd 96 be 90 a0 c3 be 6e ea fa 3e
       0.090890154 -0.2945346 -0.38208437 0.4900698
000190 6e aa fa be 8d 28 dc 3e 34 b9 f0 3e c0 f0 86 be
       -0.48958153 0.42999688 0.470163 -0.26355553
0001a0 2c f2 0c 3e 25 b2 3b 3e de 57 38 3e f1 a1 f8 be
       0.13764256 0.18329675 0.18002269 -0.4856105
0001b0 09 33 fe be 8c 44 5a be 8e d3 6a 3e b7 54 96 be
       -0.49648312 -0.21315211 0.22932264 -0.29361507
0001c0 1b 64 3b 3c 4f 45 fb 3e b6 26 d3 3e 0c fd 5c 3e
       0.011437441 0.49076316 0.41240472 0.21580905
0001d0 76 04 a6 be be 1b a3 be dd d7 ae 3e e9 2f ee 3e
       -0.32425278 -0.31857103 0.34149066 0.46520928
0001e0 ad ec c5 3e e0 40 cc 3e 36 6a a4 3e ee 2b 36 be
       0.38657132 0.39893246 0.32112283 -0.17790195
0001f0 47 f6 db 3e d6 ae c6 be b9 8e 9c 3c ef 01 98 be
       0.42961332 -0.38805264 0.019111024 -0.29688975
000200 7b 83 db bd 85 c8 4c 3e 08 cd d3 bc 6f 17 1d bd
       -0.10718437 0.19998367 -0.025854602 -0.038352426
000210 51 fd de be a3 a2 98 be bb 20 86 be 65 68 d1 be
       -0.4355264 -0.29811582 -0.26196846 -0.4089996
000220 f0 8f aa be c9 eb 93 3e 9a ed 9b be 97 47 2f 3d
       -0.3331294 0.28890827 -0.30454713 0.042792883
000230 79 1e 33 3e 28 a1 da be b5 ad 4c 3e 6c 64 b1 3e
       0.17492093 -0.42701077 0.19988139 0.34646928
000240 76 8d c5 3e c6 31 51 be 64 f6 a0 3d 79 4b 82 be
       0.3858449 -0.20429143 0.07859495 -0.25448206
000250 dd 8c 3a 3e e7 5b 8e be b2 33 42 be 0c bc d3 be
       0.18217798 -0.2780449 -0.18965033 -0.41354406
000260 58 60 0c be 29 a8 4b 3e ac 14 5e be 3c 63 65 3e
       -0.13708627 0.19888367 -0.21687573 0.22401136
000270 f0 5d 9f 3d 6a 2d e6 3e 7c 64 3a be 1e 62 9e 3e
       0.07781589 0.44956523 -0.18202394 0.30934232
000280 17 b2 f6 3d ea c1 ad 3e 1f d7 43 be ec 68 56 3e
       0.12045687 0.33937007 -0.19125031 0.20938462
000290 78 6c 17 3e 9d 63 b3 be 14 13 90 3e c9 7b 97 3e
       0.14787471 -0.35036936 0.28139555 0.29586628
0002a0 e8 8c 3f 3d c6 9f ae be 80 d5 bb be 50 53 b3 3d
       0.046765238 -0.34106272 -0.36686325 0.08756125
0002b0 30 7f e0 3e 1d f2 ff be 6d 52 2d be 33 e9 86 be
       0.43847036 -0.49989405 -0.16925974 -0.26349792
0002c0 98 a4 cf be 8b d5 6b 3c 86 a5 89 be 19 d0 26 3e
       -0.40555263 0.014394174 -0.26884097 0.1629032
0002d0 03 24 03 be 77 7b 58 be d0 89 16 3e 1d 6e 1b 3e
       -0.12806706 -0.21140848 0.14701009 0.15178724
0002e0 b7 5e d4 be 2c f5 68 3e 0f ad 84 3d a1 58 df 3e
       -0.41478512 0.22749776 0.06478321 0.43622306
0002f0 5a 7a 65 3d af b5 5a 3c f7 c5 c8 be 21 fd 55 3d
       0.056024887 0.013348981 -0.39213535 0.052243356
000300 d6 74 c7 3e 4b 6c a5 3e c8 8d ba be e7 ac 5a be
       0.38956326 0.32309183 -0.36436296 -0.2135502
000310 9b 56 6e be e2 37 67 bd 53 9d be 3e eb 6c c7 bd
       -0.23275225 -0.05644978 0.37229404 -0.09737571

spacetimeformer.enc_embedding.val_time_emb.bias f4 [50]
000000 60 f2 6e 3e 1f 41 53 be 16 3f 86 3e bd af 70 3e
       0.23334646 -0.2063031 0.26220006 0.23504539
000010 a4 b6 8f be 96 6b 86 bd ca a3 76 3e 10 3a 10 be
       -0.2806903 -0.06563489 0.24085918 -0.14084649
000020 a9 39 b9 3e b9 d3 c2 be 08 de b2 be 94 f0 44 be
       0.36176804 -0.38052157 -0.3493502 -0.19232398
000030 52 74 0f be 43 5e 88 3e 00 d7 22 be 9f 70 90 3e
       -0.14009216 0.26634416 -0.15902328 0.28210923
000040 83 e8 af 3e 99 91 1b be 8b 25 12 bd 12 b1 ad 3e
       0.3435708 -0.1519226 -0.035680335 0.33924156
000050 57 2e fd 3e b6 01 f3 be f1 f0 97 bd 85 b9 aa 3c
       0.49449417 -0.47462243 -0.07419003 0.020840416
000060 1f b4 d6 3e 8d 5f f9 3b 9f 8b 9a 3e 3b 6f 8d 3e
       0.41934296 0.0076102675 0.30184647 0.27623925
000070 ae b8 8b be f2 ef 13 be 49 49 bb be 0c be 4e 3e
       -0.27289337 -0.14447 -0.3657935 0.20189685
000080 7e 7d 5a 3c a9 03 fb be 94 d5 de be de 3d 7e bd
       0.013335584 -0.4902623 -0.43522322 -0.06207072
000090 c3 6b 37 3e e9 15 55 bd 3b 40 d3 bd cf 0b 3d be
       0.17912202 -0.05202285 -0.10314985 -0.18461536
0000a0 31 2c 4e bc d5 4a e9 be 1f 33 ca 3e 23 bb af be
       -0.012583778 -0.45564905 0.39492127 -0.3432246
0000b0 c0 a5 43 b9 eb cb 7a 3c 32 98 ee 3e 70 5a 8a be
       -0.00018658396 0.015307407 0.4660049 -0.27022123
0000c0 5f 20 7f 3e d2 18 97 be
       0.24914692 -0.29511124

spacetimeformer.enc_embedding.space_emb.weight f4 [10, 50]
000000 ec 9c 5a bf c2 7a 62 3f 1e 69 57 be a7 42 29 3f
       -0.85395694 0.88468564 -0.21036193 0.6611733
000010 5a 53 be bf fb 6a 1b 3f af 35 80 bf a8 a4 f6 bf
       -1.4869187 0.60710114 -1.0016383 -1.9268999
000020 05 b5 28 bf d0 bd 10 bd 5c 6d dd bf 01 60 c0 3f
       -0.65901214 -0.03533727 -1.7298999 1.5029298
000030 bc 56 40 3f dd 25 49 3f 8f 03 bc 3f b9 da 9d 3f
       0.75132346 0.785734 1.4688586 1.2332374
000040 c6 0b 3f 3f 67 7c d6 3f a7 88 b4 be b6 be 02 3e
       0.7462734 1.6756715 -0.35260507 0.12768063
000050 f3 2d ba 3d ae 0a cd bf 7d 0e ef 3e 9e 1c 17 3f
       0.09090795 -1.6018884 0.4669074 0.5902804
000060 3a 8f 8f 3f 6c 04 8f 3f 18 c0 4d bf cf 2c f7 bf
       1.1215584 1.1173224 -0.80371237 -1.931055
000070 9d 61 d5 3f 40 fd 9e bf e6 a7 76 bf 57 04 8f 3e
       1.6670414 -1.2421036 -0.9634994 0.27933
000080 76 3e 8b be b8 8c da 3f b8 2c 92 bf 6a 0d e3 bf
       -0.2719609 1.7074194 -1.1419897 -1.7738469
000090 e3 e1 fc bf c9 b4 02 c0 29 00 3a bf 7d 8f 8f 3f
       -1.9756435 -2.0422843 -0.72656494 1.1215664
0000a0 73 8a c6 3e 96 66 84 3e ce 4c 8f 3f 05 93 6e 3f
       0.38777503 0.25859517 1.1195314 0.93193084
0000b0 72 27 e2 be d3 91 af 3f bd 82 f9 3e 08 a7 9f 3f
       -0.4417072 1.3716377 0.48732558 1.2472849
0000c0 4b b6 72 3e ce 84 83 3f e7 01 7b 3f bd e3 9e 3d
       0.23702352 1.0274904 0.9804978 0.077582814
0000d0 de d2 66 3f 84 5f 12 3e 7d 99 2a 3a 0b 42 e9 bf
       0.9016551 0.14294249 0.0006507857 -1.822328
0000e0 33 cc 13 bf c0 79 9a 3e b7 88 99 3f 89 1d df be
       -0.5773346 0.30171013 1.1994847 -0.4357722
0000f0 49 91 a0 3d 49 34 08 3f 58 e2 3e 3e 70 e1 ce 3e
       0.07840211 0.5320478 0.18641031 0.4040637
000100 d7 6e 6f 3e 27 32 4b 3f 6e c9 c4 bf 69 a2 e2 3f
       0.23382126 0.793734 -1.5373971 1.7705814
000110 63 a3 39 3f cc 20 db 3d 01 5a 34 bf 02 e4 5b be
       0.72514933 0.10699615 -0.70449835 -0.21473697
000120 08 34 71 3f f6 18 cf bf 29 1e 6b 3e e6 59 76 bf
       0.9422002 -1.6179492 0.22960724 -0.96230924
000130 4c 8c 11 3f 1f 5e 99 bf 3d 23 c2 bf 92 c8 83 3f
       0.568547 -1.1981848 -1.5167004 1.0295584
000140 20 54 15 c0 82 ea d5 be 90 9f 78 3e 0c 73 88 be
       -2.3332596 -0.41780478 0.24279618 -0.26650274
000150 f9 45 59 3f 3d 8c 9f 3f 16 58 16 be 3d 42 65 be
       0.84872395 1.2464672 -0.1468204 -0.22388549
000160 ba 09 9c 3f 4e b8 e6 bd b3 d1 ff 3e b8 89 80 3f
       1.2190468 -0.11265622 0.49964675 1.0042028
000170 6c 8e 07 bf fe 53 35 3f 35 40 6c bf de 92 44 bf
       -0.52951694 0.70831287 -0.9228547 -0.767866
000180 04 a5 b9 bf 6d 0b b4 3e f2 1d d9 bd 0a 34 66 3e
       -1.4503484 0.35164967 -0.10601415 0.22480789
000190 68 e9 5e bf 13 81 7b 3e 6f ec 2f bf 45 93 f6 3f
       -0.870749 0.24560957 -0.68720144 1.9263693
0001a0 ec 62 cb 3e 01 44 1c 3e a5 1e 6e bf bb c5 85 be
       0.3972391 0.15260316 -0.9301551 -0.2612742
0001b0 95 12 bf bf 1b 41 3d 3f cf 45 e1 3d 60 df 96 bf
       -1.4927546 0.7392747 0.10999643 -1.1786919
0001c0 36 b0 22 c0 2b 24 c4 3f 5f 1e db 3f 74 d5 2a be
       -2.542005 1.5323538 1.7118644 -0.16682988
0001d0 de 52 d3 3e 88 28 62 be 8a 69 07 bf 39 50 ab 3e
       0.4127416 -0.22085774 -0.52895415 0.33459643
0001e0 6d 78 f2 3f f8 0e 0e bf 62 35 af 3f 6b 57 ce bd
       1.8943001 -0.5549159 1.3688166 -0.100752674
0001f0 2f 5f cb bd 71 fb b1 bf f2 34 8f be f3 d5 f3 3d
       -0.09930264 -1.3904859 -0.27970082 0.11906042
000200 c6 93 23 3f 46 d2 80 38 c2 d7 84 3c de 03 98 bf
       0.6389736 6.142682e-05 0.016216163 -1.187618
000210 f4 f3 3d be c5 63 e5 3e a0 23 97 bf 16 94 c5 3f
       -0.18550092 0.4480268 -1.1807747 1.5435817
000220 cf eb 9d bf 99 84 88 bf 0a ab aa 3f 9d 34 bb 3e
       -1.2337588 -1.0665466 1.3333447 0.36563578
000230 ea 12 12 be f6 23 e8 bf a9 9f 06 3f b2 85 f3 3e
       -0.14265028 -1.8135974 0.5258737 0.4756294
000240 1c bd b7 3f 14 75 3e bf 04 f9 a0 be 5d cf 9f 3d
       1.4354587 -0.743974 -0.31439984 0.07803223
000250 ed 0e 36 bf 91 fd 94 bf 11 ea a7 3e de c0 d9 3e
       -0.71116525 -1.1639882 0.32795766 0.42529958
000260 cb 58 eb be 3b cd 4d bc e5 43 49 bf a7 5f 23 bf
       -0.4596618 -0.012561138 -0.78619224 -0.6381783
000270 bb bd ae 3e 8c 73 ec 3f 32 13 d6 be 72 21 01 bf
       0.34129128 1.8472762 -0.4181152 -0.5044166
000280 ae c7 cc bd d7 5d a2 bc de 05 34 bf 3f 99 d3 3e
       -0.099990234 -0.019820137 -0.7032145 0.41327855
000290 18 89 0a 3f 70 b8 a8 3f c8 88 d3 3f 2b 38 8c 3f
       0.5411544 1.3181286 1.6526117 1.0954641
0002a0 de a8 26 3f 39 32 40 c0 d4 5b 64 bf 49 9c e1 3f
       0.6510142 -3.0030653 -0.8920262 1.762582
0002b0 74 6a 5c 3f ab 3b b6 3f fd 1c bc 3e e0 94 a0 bf
       0.86099935 1.4236959 0.36740866 -1.2545433
0002c0 ae e3 d7 bf 05 c7 b9 3f f1 74 ed bf 91 8b 57 bf
       -1.6866357 1.4513861 -1.8551313 -0.84197336
0002d0 66 b6 0a bf 1f 0d 0b 40 ff 26 66 3d 30 c9 cd 3f
       -0.5418457 2.1726758 0.056189533 1.6077023
0002e0 5f 86 d7 be 64 8c 17 bf b5 9a ff 3f 34 b2 90 bf
       -0.42094705 -0.59198594 1.9969088 -1.1304383
0002f0 71 a5 2d bf 99 5e b0 be 40 05 34 bf e1 1e 2e 3f
       -0.6783057 -0.34447172 -0.7032051 0.6801587
000300 0c 22 5d 3f e2 88 11 bf 01 ac a1 3e f8 80 5f be
       0.86380076 -0.5684949 0.3157654 -0.21826541
000310 03 97 47 bf 3f d5 86 3e 51 da 1d bf 6b 33 94 bf
       -0.779648 0.2633457 -0.6166125 -1.1578192
000320 6f f6 ae 3e 01 d0 73 bd 30 ab 82 3e 8b bb 6e be
       0.3417239 -0.05952454 0.2552123 -0.2331373
000330 49 9d c5 bc dc 08 b5 be 1c ed e5 3f 6e db ac 3f
       -0.024122851 -0.35358322 1.7962985 1.3504465
000340 c4 9d 97 bd 69 31 dd 3f 9b 95 65 be 04 e3 80 bf
       -0.07403138 1.7280704 -0.22420351 -1.006928
000350 c2 3c 14 c0 59 e8 dc be cd 84 1b be bd 02 c8 bd
       -2.3162084 -0.43146017 -0.15187378 -0.09766147
000360 6e 7f 0e bf 79 df 45 bf 3c 7a e6 3e 73 3e 18 bf
       -0.5566319 -0.7729412 0.45015132 -0.5947029
000370 05 61 86 c0 98 92 af 3e e6 fe a4 bd b4 d4 b7 3d
       -4.199343 0.3429153 -0.080564305 0.08976117
000380 70 65 a0 be cf d0 15 3f 1c b5 24 bd fd 13 90 be
       -0.3132739 0.5852174 -0.04021178 -0.2814025
000390 29 e5 f9 3f b2 cf 45 3f 99 e2 28 bf ca f3 9b be
       1.9523059 0.7727004 -0.6597076 -0.30459434
0003a0 a6 6b 94 3f 69 43 84 bf 0d 7a 4e 3f 69 d0 2b bf
       1.1595352 -1.0333072 0.80654985 -0.67114884
0003b0 86 06 a9 bf 3f 8e 68 3f b9 2f 58 3e 88 d4 88 bf
       -1.3205116 0.9084205 0.21111955 -1.0689859
0003c0 5f 51 35 3f 1a 8e 5a be 26 c9 4a bf e0 59 c6 bf
       0.7082729 -0.2134327 -0.7921318 -1.5496178
0003d0 89 f9 9e 3e 5b a6 ea be 33 c3 f4 3e 0a c5 fa bf
       0.31049755 -0.45830044 0.47805175 -1.9591382
0003e0 74 72 de 3e e5 4d 7d 3f 3d 6d 14 be 4f cc 1e bf
       0.43446696 0.9894698 -0.14494796 -0.620305
0003f0 02 f6 b7 3f 9c 42 fa 3e 68 2d f4 3d c7 9e 6b 3f
       1.4371951 0.48878944 0.11922723 0.9203915

spacetimeformer.enc_embedding.given_emb.weight f4 [2, 50]
000000 98 b4 fb bf 43 4e 91 3f bf a9 3a 40 32 90 d5 bd
       -1.9664488 1.1352009 2.9166105 -0.10427894
000010 de 05 da 3f 7e b0 db be 7d 15 8d 3e 27 d8 a9 bf
       1.703304 -0.4290809 0.27555457 -1.326909
000020 2f b8 12 40 94 d8 0c bf c1 24 d7 3f 8b c2 4c bf
       2.2924917 -0.5501797 1.6808091 -0.7998435
000030 e4 df d0 be 7d 8f f9 3f 89 63 e9 be ad 0a 9d 3d
       -0.40795815 1.9496914 -0.45583752 0.07668052
000040 fd e0 41 3f 96 5d 62 bf 73 b8 2c bf 26 79 05 3f
       0.7573393 -0.8842405 -0.6746895 0.5213798
000050 9d 1e 60 bf 07 0e 6b 3e 78 27 3d bf 87 4b 90 bf
       -0.8754671 0.2295457 -0.7388835 -1.1273049
000060 9c 35 85 3f 36 5a 8b 3f 74 93 58 3f a8 45 7f be
       1.0406985 1.0886905 0.84599996 -0.24928916
000070 52 d2 ac 3f 26 a4 54 3f a0 7b 58 3f d9 e8 01 40
       1.3501685 0.8306297 0.84563637 2.029837
000080 12 ae 10 3f e1 06 00 bf 57 7c 06 3d 12 b0 fb 3f
       0.5651561 -0.50010496 0.032833423 1.9663107
000090 f7 39 0a be 8a 3a e6 3f 0f 1c 76 bf eb b0 39 be
       -0.13498674 1.7986615 -0.96136564 -0.18133895
0000a0 03 aa 14 bf 57 4e b5 bc 48 7e a7 3f 23 87 38 3f
       -0.5807192 -0.022132082 1.3085413 0.720812
0000b0 80 f5 86 3e 77 4d 6b 3f cb 41 0e bf 4b 8c 1d bf
       0.26359177 0.91915077 -0.5556914 -0.61542195
0000c0 29 c7 a7 bf 7e df a3 3e a2 7a a9 bd 94 12 c6 3f
       -1.3107654 0.32006449 -0.082753435 1.547442
0000d0 ba 1e 7a bf 00 15 49 3f c7 86 f4 bf 2e d7 8b bf
       -0.97703135 0.7854767 -1.9103631 -1.0925043
0000e0 a0 29 4d 3e e0 6e 01 40 a5 24 22 be dd 6b 02 bf
       0.2003541 2.0223923 -0.15834291 -0.50945836
0000f0 ea 56 3a bd 2c 34 26 3e 0f 3a 67 3f f2 1b 34 be
       -0.045493044 0.1623084 0.90322965 -0.17588785
000100 1a 1a 93 3e c0 aa 97 be bb 10 b7 3f 5b 4e 9c bf
       0.2873085 -0.2962246 1.4301981 -1.2211412
000110 e1 7d fa 3e c1 fb 0f 3e 67 b6 94 3f 9f 42 39 3f
       0.48924163 0.1406088 1.1618165 0.7236728
000120 d0 f5 9b bf ba be 32 bf b8 16 2b bf 3d 09 15 40
       -1.2184391 -0.69822276 -0.6683154 2.3286889
000130 78 a5 b2 3f 94 c5 b3 3f 82 b0 be 3f 11 cf 16 3e
       1.3956747 1.4044671 1.4897616 0.14727427
000140 d8 40 52 3f 77 71 33 40 35 fd 85 bd 65 63 f0 bf
       0.82130194 2.8038003 -0.06542436 -1.8780333
000150 54 57 9b 3e 73 58 dd 3f 33 d3 1a bf 68 0d 29 bf
       0.30340064 1.7292618 -0.60478514 -0.6603608
000160 53 0a 8a bf 98 8b 7b 3f 57 d6 96 3f 23 f9 b6 3f
       -1.0784401 0.9825988 1.1784161 1.429478
000170 09 c3 bc 3d 50 46 d7 bf 4e c3 23 bf 8b d6 3a 3f
       0.092168875 -1.6818333 -0.63969886 0.72983617
000180 3a df af bf 3a 18 62 3f 7f 5a f4 ba ad 55 70 bf
       -1.3739998 0.88318217 -0.0018642693 -0.9388073

spacetimeformer.enc_embedding.downsize_convs.0.conv.weight f4 [50, 50, 3]
000000 c5 20 7a bd e9 61 9a 3b 5e aa 9b 3d fd 85 16 3d
       -0.061066408 0.004711379 0.07600854 0.036748875
000010 8a 79 00 bd f4 fb 10 3c 21 ca f4 3c 38 f3 8c 3d
       -0.03136591 0.008849133 0.029881539 0.06882328
000020 95 ca 27 bd f8 8f cd bc a1 be 32 bd 98 64 a1 3a
       -0.04096468 -0.025093064 -0.04363883 0.0012313304
000030 da c3 d2 3b d5 cf c5 bc 88 33 0b bd 48 f4 9e bd
       0.0064320387 -0.024146954 -0.03398469 -0.07761437
000040 53 24 9e bd c6 fe 98 bd 6d 91 8e bd 0d 69 af 3c
       -0.07721772 -0.07470469 -0.069613315 0.021412397
000050 a0 06 11 3c b2 1e 8f 3c 45 51 8a bd 8e 6c 76 3d
       0.008851677 0.017470691 -0.06753782 0.06016212
000060 ea ad cc 3b 59 f6 4b bc 28 3b 78 3d b6 da 2b bd
       0.006246318 -0.012448871 0.06060329 -0.041956626
000070 12 92 06 bc 7c 9e e7 bc c6 a0 7c 3d 2b 4f 95 3d
       -0.008213537 -0.028273813 0.061676763 0.07290491
000080 dc 03 02 bc 95 a8 fc bb fb 82 c0 39 44 10 24 3d
       -0.00793549 -0.007710526 0.00036718682 0.040054575
000090 f8 f9 6c 3d e8 c6 4d bd 4d 9e 3f 3d f7 27 95 bd
       0.057855576 -0.05023852 0.046781827 -0.07283013
0000a0 5a 77 d4 bc c3 7a 7e 3c 82 c8 e1 3a 83 f3 8c 3b
       -0.025935818 0.015532198 0.0017225894 0.00430149
0000b0 32 8f 98 bd 1a 57 46 bd 1f 61 7f 3c c6 9f 9a bd
       -0.07449187 -0.04842291 0.01558712 -0.075500056
0000c0 6e ea a8 bc 73 2f 8b 3d fb ba 4d 3d c9 ab 29 3d
       -0.020619597 0.067961596 0.050227147 0.041423593
0000d0 15 c2 ab 3b bc 5e 8f bc c9 85 07 3c d5 22 11 bc
       0.0052416422 -0.017501228 0.008271643 -0.008858402
0000e0 31 ea e0 bc 14 00 ed 3c b1 38 12 bd 00 17 27 bd
       -0.027455421 0.028930701 -0.035698596 -0.04079342
0000f0 42 48 21 3d 63 da 64 3d 10 17 22 bd 8b de ad 3b
       0.03937555 0.055872332 -0.039572775 0.00530607
000100 66 1f 38 bd ba 32 59 3d a6 03 99 bd 72 46 95 ba
       -0.04495182 0.053026892 -0.07471399 -0.0011388792
000110 db 32 89 bd d9 31 1a bc 33 8a 36 3d 74 a8 99 3d
       -0.06699153 -0.009411299 0.04456539 0.07502833
000120 33 75 76 bd e7 22 00 3d 51 2f 45 3c c1 7e 75 3d
       -0.060170364 0.031283285 0.012035207 0.059935335
000130 4b 6e e9 3c d2 11 5c 3d 02 42 66 3d 55 1f 25 bd
       0.028494975 0.053727932 0.056215294 -0.040313084
000140 f2 d9 4d bb bc 25 8e 3d 26 5f 95 3d 24 db dc bb
       -0.0031410423 0.06940791 0.07293539 -0.006739991
000150 82 ca d3 ba 07 d3 9a 3d a7 0a d8 bb f5 37 44 3c
       -0.0016158374 0.075597815 -0.0065930667 0.011976232
000160 27 a2 77 3d e1 7d 7b 3c 4e 82 48 3d 03 ff 8f bb
       0.060457375 0.015349836 0.048952393 -0.0043944134
000170 27 96 4e 3d 8c 2a 50 bc 38 33 90 3d 80 84 3b bc
       0.050436165 -0.012705456 0.07041019 -0.011445165
000180 d1 da bb bc 89 51 27 3d fe 18 85 bc 6f 22 8e bd
       -0.022931488 0.040849242 -0.016247269 -0.069401614
000190 4f 25 67 bc 79 c9 e6 3c 80 1a a6 bd 06 d2 7f 3d
       -0.014108016 0.028172242 -0.08110523 0.062456153
0001a0 0c d1 ff 3c 22 5b b2 ba 0e b0 c3 bc a0 06 c7 bc
       0.031227611 -0.0013607482 -0.02388766 -0.024295151
0001b0 a0 cc 96 3d 2d b4 b2 bc 6a 49 1d 3d bc 7e 3a bd
       0.07363248 -0.02181443 0.03840009 -0.04553102
0001c0 26 b1 2a bc ea 9a 9b 3d 3c 3d ea bb a7 90 46 bd
       -0.010418212 0.07597907 -0.007148413 -0.048477795
0001d0 59 be 4d bd 9c 75 1c 3d 49 ec 8c bd d8 82 30 3d
       -0.050230358 0.0381981 -0.06881005 0.043093532
0001e0 2d 36 87 bc 76 1f c6 3c e8 59 75 3d e6 dd 11 bd
       -0.016505325 0.024184924 0.059900194 -0.03561201
0001f0 03 25 4c bd 33 53 f9 bb e6 11 20 3d 8a 41 a2 bd
       -0.049839985 -0.007608795 0.03907957 -0.07922657
000200 a7 0c 9b 3d 8f d7 15 bd 6f 4a 80 3d 45 0b 12 bd
       0.075707726 -0.036582526 0.06264197 -0.03565528
000210 ba da 99 3d 29 b8 42 bd b4 2f 5e 3d ba db 85 3d
       0.07512422 -0.04753891 0.054244712 0.0653605
000220 f0 41 7a 3d 04 5c 94 3c 35 73 22 bd 6f 59 d5 3c
       0.06109804 0.018110283 -0.03966065 0.026043622
000230 16 70 4a 3d bf 8b 85 3d 14 24 85 3c e9 bd 5c bd
       0.0494233 0.06520795 0.016252555 -0.05389205
000240 4e d6 01 3d b9 d9 29 3c e6 44 4d 3d 46 66 48 3d
       0.031698518 0.0103668505 0.050114535 0.04892566
000250 f3 14 54 3b 42 cd 38 3d 8f e1 79 bd 6a b1 ef 3c
       0.003236112 0.045117624 -0.061006125 0.029259402
000260 64 ce 83 3c b9 6c 7b 3d 24 96 4b 3c 04 bc 7e bd
       0.016089626 0.061382983 0.012425933 -0.062191024
000270 23 da 10 3d e2 5c 4a bc 2b 8d 04 bd 94 2a 4f bd
       0.03536428 -0.012351247 -0.03236119 -0.050577715
000280 51 a0 ce 3c a4 34 40 bc 4d 6a 8e bd 69 be 0b 3c
       0.02522293 -0.0117313005 -0.06953869 0.008529284
000290 be a0 a6 3c f5 de 08 bd 16 bb 57 bd 8b d4 10 bd
       0.02034032 -0.033415753 -0.052668653 -0.035358947
0002a0 29 eb 44 3d 33 f7 3b 3d 71 31 6c 3d fb 84 97 3d
       0.04807583 0.045890044 0.05766434 0.07398411
0002b0 ff 1c 6c bd 43 48 d0 36 e4 26 e5 bc 7b 38 d1 bc
       -0.05764484 6.2072954e-06 -0.027972646 -0.025539627
0002c0 db 9d 87 bd e2 e8 44 3a 5c 74 8b bd 4e 3e 3d bd
       -0.066219054 0.0007511509 -0.06809303 -0.046201997
0002d0 c0 68 89 bd a2 93 68 3d e5 c4 3f 3d 5b e0 b8 bc
       -0.067094326 0.05678142 0.046818633 -0.022567919
0002e0 6d fe 7f bd 82 0d b4 3c 22 a1 73 bd 66 a6 d4 3a
       -0.0624985 0.021979097 -0.05947984 0.0016223907
0002f0 2c 14 f4 bc 1d 9d 87 3c c7 32 40 3d 4b f3 7c bd
       -0.029794775 0.01655441 0.046923425 -0.06175546
000300 c1 f1 a3 bc 82 47 45 bd 13 83 15 3d 71 9d 38 bd
       -0.020012738 -0.0481639 0.036501955 -0.045072023
000310 b4 d1 8b bd 28 2f 6d 3c c7 39 0f 3d f2 07 83 3d
       -0.06827107 0.014476575 0.03496721 0.06398
000320 ce dd 76 3d 3d 60 48 bc fa b2 7d bd bd 0f 06 bc
       0.060270123 -0.012229976 -0.061938263 -0.008182463
000330 f4 27 6d 3d 95 b5 89 3d e9 2b 91 3d 98 fb 05 3d
       0.05789943 0.06724087 0.07088453 0.03271064
000340 87 33 2f 3c 3f 68 0e bd c9 f6 21 3d 04 cd bf 3b
       0.010693437 -0.034767386 0.039541993 0.005853297
000350 7e f4 80 bd 57 1a 5c bc 28 3d ce bc 4a 86 b8 3c
       -0.06296633 -0.013434014 -0.025175646 0.022524972
000360 a8 fe 81 3d 34 c1 41 3d e6 b9 2a bd f9 48 56 3d
       0.063474 0.047303393 -0.041681193 0.052315686
000370 e8 88 5e bd 66 b3 9d 3d e6 60 84 bd 91 82 21 bd
       -0.054329783 0.07700233 -0.064637944 -0.03943116
000380 b9 95 2e bd 51 5c 85 bd 98 88 dc 3b 83 8b df bb
       -0.042623255 -0.065117486 0.0067301504 -0.006822051
000390 27 d1 81 bd 87 a9 8c 3d db 1f a4 3d de d2 fa bc
       -0.06338721 0.06868272 0.080138884 -0.030618127
0003a0 59 94 ba bb 27 c2 63 bd 26 ac 6a 3c d8 85 5b bc
       -0.005693954 -0.05560508 0.01432327 -0.01339861
0003b0 e5 c2 f7 3c aa 8b 5d 3d 5c ac 0c 3d 29 85 a3 3d
       0.0302443 0.054088272 0.034344062 0.07984383
0003c0 7e 57 fd 3c 7c 72 2c 3d 55 60 61 bb 88 84 39 3d
       0.030925509 0.04210137 -0.0034389694 0.045292407
0003d0 fe e1 21 3d 8c fd 28 3d 5d d1 23 3c cd 77 4c bd
       0.039522164 0.041257426 0.009998647 -0.04991894
0003e0 be 87 78 bd 52 48 15 3c 3a f6 b3 3c cf f9 45 3d
       -0.06067633 0.009111481 0.021967996 0.04833394
0003f0 d6 38 55 3d dc f9 39 bd 24 44 8c 3d 63 c9 b8 bc
       0.052056156 -0.0454043 0.06848934 -0.022556966

spacetimeformer.enc_embedding.downsize_convs.0.conv.bias f4 [50]
000000 25 ee 04 3c 03 74 52 bc f7 39 38 3d 6f 06 85 3d
       0.008113419 -0.012845042 0.044977155 0.06495368
000010 a2 ee 6b bd 38 0d 80 3d 56 18 86 bd d0 fa 87 3d
       -0.057600625 0.06252521 -0.065476105 0.066396356
000020 a4 b8 20 bc d4 c8 b6 bc 81 f9 8d bc 99 9a d9 3b
       -0.009809647 -0.02231256 -0.017330887 0.006640744
000030 08 8a 83 bd 19 22 58 3a 25 c8 ae bc bd fd 92 3d
       -0.06422812 0.0008244827 -0.02133567 0.07177303
000040 a2 d8 cd bc 1a ac 1d 3d 04 db 86 3d c3 66 21 3c
       -0.025127713 0.038494207 0.06584743 0.00985116
000050 ea 4c 90 bd 0c 61 3c 3c 59 9d 99 bd b6 fc 6f bd
       -0.0704592 0.011497747 -0.07500715 -0.058590613
000060 c3 66 95 3c ce 69 d5 3a 06 66 48 3d f8 b7 d5 3c
       0.018237477 0.0016282143 0.048925422 0.0260887
000070 a7 fd 7a 3d 60 d1 52 bd 2c 9d 19 3d 9f fa 93 bd
       0.061277058 -0.051469207 0.037503406 -0.072255366
000080 60 ba f5 3c 43 e7 53 bc 1c 93 1d 3d 64 1d fa 3c
       0.029996097 -0.012933555 0.038470373 0.030531593
000090 bf ab 15 3c 95 54 35 bd 7f 88 99 bb eb 6f 25 3d
       0.009135186 -0.044270117 -0.004685461 0.040389936
0000a0 46 12 44 3d 54 7f e8 3c e9 80 47 3d a8 e9 5b bc
       0.04786899 0.028381027 0.048706923 -0.013422407
0000b0 51 3e ee bc cc ff 96 3d dc cc da 3c 50 b1 59 bd
       -0.02908245 0.07373008 0.026709013 -0.053147614
0000c0 ff f5 2d 3d 9b 89 18 bb
       0.04247093 -0.0023275379

spacetimeformer.enc_embedding.downsize_convs.0.norm.weight f4 [50]
000000 63 00 80 3f 62 00 80 3f 35 ff 7f 3f 63 00 80 3f
       1.0000118 1.0000117 0.9999879 1.0000118
000010 36 ff 7f 3f 1c 00 80 3f 36 ff 7f 3f 63 00 80 3f
       0.99998796 1.0000033 0.99998796 1.0000118
000020 63 00 80 3f 62 00 80 3f 63 00 80 3f 63 00 80 3f
       1.0000118 1.0000117 1.0000118 1.0000118
000030 63 00 80 3f 3b ff 7f 3f 34 ff 7f 3f 34 ff 7f 3f
       1.0000118 0.99998826 0.99998784 0.99998784
000040 60 00 80 3f c0 ff 7f 3f 63 00 80 3f 63 00 80 3f
       1.0000114 0.9999962 1.0000118 1.0000118
000050 63 00 80 3f 34 ff 7f 3f 63 00 80 3f 37 00 80 3f
       1.0000118 0.99998784 1.0000118 1.0000066
000060 63 00 80 3f 62 00 80 3f 4c 00 80 3f 34 ff 7f 3f
       1.0000118 1.0000117 1.0000091 0.99998784
000070 63 00 80 3f 39 00 80 3f 63 00 80 3f 61 00 80 3f
       1.0000118 1.0000068 1.0000118 1.0000116
000080 62 00 80 3f 3a ff 7f 3f 42 ff 7f 3f 34 ff 7f 3f
       1.0000117 0.9999882 0.9999887 0.99998784
000090 34 ff 7f 3f 34 ff 7f 3f 3b ff 7f 3f 36 ff 7f 3f
       0.99998784 0.99998784 0.99998826 0.99998796
0000a0 63 00 80 3f 63 00 80 3f 63 00 80 3f 63 00 80 3f
       1.0000118 1.0000118 1.0000118 1.0000118
0000b0 63 00 80 3f 34 ff 7f 3f 62 00 80 3f 34 ff 7f 3f
       1.0000118 0.99998784 1.0000117 0.99998784
0000c0 35 ff 7f 3f 63 00 80 3f
       0.9999879 1.0000118

spacetimeformer.enc_embedding.downsize_convs.0.norm.bias f4 [50]
000000 60 a8 49 37 08 20 3b b7 f1 af 46 b7 f5 fa 1a 37
       1.20197365e-05 -1.1153526e-05 -1.1842684e-05 9.237546e-06
000010 12 e6 47 b7 5b e4 30 37 88 64 47 b7 a9 8e 49 37
       -1.1914892e-05 1.0543586e-05 -1.1884731e-05 1.2013749e-05
000020 e6 56 49 37 4f b2 49 37 42 ac 49 37 d0 d1 47 37
       1.2000766e-05 1.2022049e-05 1.20206405e-05 1.1910175e-05
000030 fe 8b 49 37 aa 0c 43 b7 fd f8 49 b7 70 79 49 b7
       1.2013128e-05 -1.1625854e-05 -1.2038506e-05 -1.2008808e-05
000040 15 ce 47 37 bf c4 46 37 ec 4d 49 37 dd 2e 49 37
       1.19093065e-05 1.1847528e-05 1.1998676e-05 1.1991445e-05
000050 2a 49 49 37 77 4a 49 b7 77 0d 48 37 00 df c3 36
       1.1997568e-05 -1.1997871e-05 1.1924064e-05 5.8374135e-06
000060 63 75 48 37 bc bc 46 37 1f e0 30 b7 34 03 dc 35
       1.194826e-05 1.1845663e-05 -1.05426e-05 1.639221e-06
000070 e0 38 49 37 72 39 49 b7 a9 64 49 37 68 3a 34 b7
       1.1993776e-05 -1.1993909e-05 1.200397e-05 -1.0742435e-05
000080 6d 7a 46 37 12 a9 49 37 d6 10 17 36 96 61 49 b7
       1.1830224e-05 1.2019898e-05 2.2510553e-06 -1.2003255e-05
000090 53 90 49 b7 30 f7 48 b7 11 01 4a b7 b6 4b 66 35
       -1.2014137e-05 -1.1978482e-05 -1.20403865e-05 8.579185e-07
0000a0 99 b0 48 37 55 0d 49 37 be d5 48 37 83 64 49 37
       1.1962046e-05 1.1983638e-05 1.1970695e-05 1.2003936e-05
0000b0 35 b1 49 37 38 26 86 b6 37 91 2c b7 86 9b 49 b7
       1.2021793e-05 -3.9979604e-06 -1.0285809e-05 -1.2016744e-05
0000c0 26 0a db 36 c2 5f 49 37
       6.52789e-06 1.2002829e-05

spacetimeformer.enc_embedding.downsize_convs.0.norm.running_mean f4 [50]
000000 d9 55 37 3f 72 7e cd 3e 56 5c 4c 3e 7c e5 ae 3f
       0.7161537 0.40135533 0.19957098 1.3663783
000010 58 4a 77 3e d6 bf 53 3e f9 4e 85 3e 8c 08 0f bf
       0.24149454 0.20678648 0.26036814 -0.55872416
000020 7a 83 91 3e 58 48 30 3e 0a 17 44 3e b0 b2 09 bf
       0.2842062 0.17215097 0.19149414 -0.5378828
000030 f8 e8 cd be 52 05 03 3e 5e 28 c5 be 77 0f 19 bf
       -0.40216804 0.12794998 -0.3850736 -0.5978922
000040 02 80 9f 3d bd ee 88 3e 1c 58 65 bd fd bd 41 be
       0.077880874 0.26744643 -0.05599223 -0.18920131
000050 16 18 08 3f 4e 3a e4 3d 57 a4 7a bf b0 42 dd be
       0.5316175 0.11143933 -0.9790701 -0.4321494
000060 16 80 87 be 35 4f 62 bd 70 cb 01 bc bc 17 20 3e
       -0.2646491 -0.05525132 -0.007922038 0.15634054
000070 93 46 d1 3e b2 91 70 bf fa e8 e0 be ed 54 c2 be
       0.40874156 -0.93972313 -0.43927747 -0.37955418
000080 91 e2 92 3d 0f 8b 0d bf 24 07 05 3e 1f ef f1 be
       0.0717212 -0.5529031 0.12991005 -0.47252747
000090 9b 42 a9 3e 6e 77 0e 3f c4 fb 05 3f 87 8e 19 3f
       0.33058628 0.55650985 0.5233729 0.59983104
0000a0 6a 89 f2 3e 08 fd 48 3e ba d7 10 3f 80 c8 08 3f
       0.47370464 0.19627774 0.5657917 0.5343094
0000b0 44 c5 af 3e d3 ca cc 3e 69 20 3c 3e 16 ba 3e bf
       0.3433019 0.39998493 0.18371738 -0.74502695
0000c0 9b 18 eb 3d ec 99 01 bf
       0.114793025 -0.5062549

spacetimeformer.enc_embedding.downsize_convs.0.norm.running_var f4 [50]
000000 49 b8 0c 3f 3d 84 06 3f b1 dd 0d 3f 45 80 fe 3e
       0.54968697 0.5254553 0.554164 0.49707237
000010 10 fd e9 3e ed 01 f4 3e 99 f7 0d 3f 94 a9 07 3f
       0.45700884 0.4765772 0.5545593 0.5299313
000020 eb c6 f7 3e 1b 47 f8 3e df a6 05 3f 7e 52 0a 3f
       0.4839395 0.4849175 0.5220775 0.54032123
000030 1a 8f e8 3e 66 a3 f5 3e 2b f3 10 3f b8 c1 11 3f
       0.45421678 0.47976226 0.56621045 0.56936216
000040 f7 85 0b 3f b5 20 f5 3e bb b4 16 3f 45 d0 0c 3f
       0.5450129 0.47876516 0.5886952 0.55005294
000050 5b 18 f4 3e 03 81 06 3f 82 37 0e 3f bb 22 03 3f
       0.47674832 0.52540606 0.5555345 0.5122487
000060 6f 04 08 3f 00 5d 07 3f 7f bc f9 3e e0 19 e7 3e
       0.53131765 0.5287628 0.48776624 0.4513693
000070 2f c8 fc 3e 5e f9 04 3f f0 68 0a 3f af 53 0b 3f
       0.49371478 0.51943004 0.5406637 0.54424566
000080 2e a0 e8 3e 1a 5b 05 3f b6 67 02 3f 9c cf f8 3e
       0.45434707 0.52092135 0.509395 0.48595893
000090 db ee 17 3f b4 5a e9 3e 09 b9 f2 3e 5e af fa 3e
       0.5934884 0.45577013 0.47406796 0.4896192
0000a0 42 6f 07 3f 2c 9b 13 3f 16 b3 0a 3f d9 c4 f3 3e
       0.5290414 0.5765865 0.54179513 0.4761112
0000b0 64 5b 01 3f f0 f0 18 3f 41 0f fd 3e 45 33 eb 3e
       0.50530076 0.5974264 0.494257 0.45937553
0000c0 51 d7 0d 3f 33 21 f1 3e
       0.5540667 0.47095641

spacetimeformer.dec_embedding.time_emb.embed_weight f4 [3, 1]
000000 ce 42 27 3f 34 af ec be 06 ac 3f be
       0.6533631 -0.4622742 -0.18717965

spacetimeformer.dec_embedding.time_emb.embed_bias f4 [3, 1]
000000 64 b4 86 be d9 bc 37 c0 39 45 53 3e
       -0.26309502 -2.8709013 0.20631875

spacetimeformer.dec_embedding.local_emb.embed_weight f4 [1, 51]
000000 8b 21 6b 3f f8 f6 8d 3f 6b 3e 44 bf de da 4b 3f
       0.9184806 1.1090994 -0.7665774 0.7963084
000010 6b 07 88 3f f4 2e 95 be ff e5 58 bf 6b 10 3c bf
       1.0627264 -0.29137385 -0.84725946 -0.7346255
000020 87 a1 c2 3d a4 72 8b 3f 35 40 16 be b2 80 2b bf
       0.09503465 1.089436 -0.1467293 -0.6699325
000030 7c 03 4f 3f 0d f3 21 bd f6 24 72 3f 2c e3 31 bf
       0.8086469 -0.039538432 0.9458765 -0.6948726
000040 16 eb 87 3f 56 cf 40 bf 65 4b dc 3f 12 9d 36 bf
       1.0618618 -0.7531637 1.7210509 -0.7133342
000050 f2 fa 0a bf 20 1e 00 3e 66 d7 22 c0 ec ad c3 bf
       -0.5428916 0.12511492 -2.5443969 -1.5287452
000060 3f cc 4f bf 8d e9 fc 3e df c2 0a c0 15 1a 89 bf
       -0.8117103 0.49396935 -2.168144 -1.0711085
000070 40 11 c6 3f a2 2c b1 3f cf 48 bb bf e8 50 3a 3f
       1.5474014 1.3841746 -1.4631594 0.72779703
000080 ba 0b 69 bf cf 72 32 3f 9d eb b3 bf c7 a5 0a 3f
       -0.9103352 0.69706434 -1.4056278 0.54159206
000090 1a d0 d3 3d b8 67 ab bf b6 2f 59 3e 86 86 44 3f
       0.103424266 -1.3391027 0.21209607 0.76767766
0000a0 2b fe 91 be 2a 63 bb bf 82 ad e3 3e 95 01 9f be
       -0.28514227 -1.4639637 0.44468313 -0.31055894
0000b0 62 11 9c bf 57 e0 67 bf 87 44 6a bf 67 96 18 bf
       -1.2192805 -0.9057669 -0.91510814 -0.59604496
0000c0 ba 19 07 3f 46 a9 1b bf 80 30 f8 be
       0.5277363 -0.60805166 -0.48474503

spacetimeformer.dec_embedding.local_emb.embed_bias f4 [1, 51]
000000 8f 9c 8d 3f e5 f9 8b 3f 66 9e 61 bf 5b f4 bc 3e
       1.1063403 1.0935637 -0.8813232 0.36905178
000010 06 99 b7 3f 0e 68 59 3d 35 50 f1 3e 9e ed 66 bf
       1.4343574 0.05307775 0.47131506 -0.90206325
000020 bc 11 94 3f a2 a4 93 3e 01 f4 b4 bf 4b 7c 43 bf
       1.1567912 0.28836542 -1.4136964 -0.7636153
000030 ab 1c 72 3f 8b 1a 20 be 12 c7 2d 3e 8c ed af be
       0.94574994 -0.15635125 0.1697047 -0.3436092
000040 cb 6a 02 40 be cb 2f 3d d0 21 7f bf a1 37 d3 bf
       2.0377681 0.042918913 -0.9966097 -1.6501352
000050 99 2d 07 3f 74 4f b1 bd 53 2b 59 bf 67 22 bc bd
       0.5280395 -0.086577326 -0.8483173 -0.09186249
000060 22 89 74 bf 64 33 a9 3f cf ec 09 40 92 50 0c be
       -0.9552175 1.3218808 2.1550786 -0.1370261
000070 e6 5e 31 40 9b ec 43 3f 07 ac 09 3f 0f fa fb be
       2.7714171 0.76532906 0.5377812 -0.49214217
000080 a8 f5 a6 be 85 ba 67 3f bd 48 3a bf b7 34 57 bf
       -0.32609296 0.9051898 -0.7276724 -0.8406481
000090 e8 5e dd be f6 0a 7d bf 7b 8a 78 3f e6 57 d5 3f
       -0.4323647 -0.9884485 0.97086304 1.666745
0000a0 89 e8 96 bc 51 73 58 3f cb 6a 32 c0 2e 50 de 3e
       -0.018421428 0.8455096 -2.7877681 0.43420547
0000b0 a1 7e bc be 85 ac 8f bd 0d 2a 29 bf cc ff a6 be
       -0.3681536 -0.07015327 -0.6607979 -0.32617033
0000c0 78 c5 bd 3e 47 6f c5 be 97 bf bc bf
       0.3706472 -0.3856146 -1.4745969

spacetimeformer.dec_embedding.val_time_emb.weight f4 [50, 4]
000000 41 37 1e 3e 9c 7f 7a be 22 37 98 3e b6 af b1 3e
       0.15450765 -0.24462742 0.29729563 0.3470437
000010 8a 4c 2f 3d 0d 40 3f 3e 38 92 ae be ea cb 1e be
       0.042797603 0.18676777 -0.3409593 -0.15507475
000020 65 a7 54 bb 97 c7 ee 3c 4d be 5f 3e 2e 89 59 3d
       -0.0032448408 0.029147906 0.21849938 0.05310934
000030 d2 72 82 be a4 c5 25 be 5f e7 e0 be 6a 8e 8b 3e
       -0.25478226 -0.16188675 -0.43926522 0.2725709
000040 5a 71 79 3e b4 d3 e7 bd 94 d0 a7 bd 52 b4 0a 3e
       0.24359646 -0.11319676 -0.0819408 0.13545349
000050 55 45 73 bd 6d 19 e2 be 50 68 e7 3e 86 f8 ad 3d
       -0.059392292 -0.44160023 0.45196772 0.08494668
000060 1f 17 1f 3e 00 20 eb 3e b0 b9 15 be 5e 9c 78 3d
       0.15536164 0.45922852 -0.14621615 0.060696
000070 02 2b f2 3e f9 bf e5 be 2f 6b 93 3e d2 07 bc be
       0.47298437 -0.44873026 0.28792712 -0.36724716
000080 f9 4d c8 3d ab 36 d5 3b fc f7 f3 3e 4a 57 2b 3e
       0.09780497 0.006506761 0.47650135 0.16732517
000090 fb 5f 3d 3e 9a 04 2e be 3c db 4f 3e d6 70 e7 be
       0.18493645 -0.16993943 0.20298475 -0.45203274
0000a0 63 a8 e3 be a5 66 a9 3e cd e5 04 bd 24 f0 c9 3e
       -0.44464406 0.33086124 -0.032445718 0.39441025
0000b0 4d 9d 81 be d4 1d 8f be b0 66 f5 3e 18 61 ac 3e
       -0.25315323 -0.27952445 0.47929907 0.33667827
0000c0 4a 6c 6b 3b de 28 29 3e 9d 5f da be 7a b5 d9 3e
       0.00359227 0.16519496 -0.42651072 0.42521268
0000d0 9e 26 42 3e a7 39 98 be 82 fa 54 be 42 e6 47 be
       0.18960044 -0.29731485 -0.20798686 -0.1952143
0000e0 61 b2 79 bd 37 a5 08 be 5a d5 dd be 1e 31 f9 3d
       -0.06096113 -0.13344274 -0.43326837 0.121675715
0000f0 17 c8 bb be da 77 ab be dc c1 19 3e d4 8b d5 be
       -0.36676094 -0.33489877 0.15015358 -0.41708243
000100 ea 15 99 be f6 b7 f1 bd fe 32 44 3d 0c 5d d6 be
       -0.29899532 -0.11802666 0.047900192 -0.41867864
000110 06 cf fa be 30 0b ce 3e 0c af 8e be 5e f8 85 bc
       -0.4898607 0.4024291 -0.27867925 -0.016353782
000120 d5 90 c2 3e 01 67 ca 3e e0 25 c6 bd 10 03 e6 3e
       0.38001123 0.3953171 -0.09675193 0.44924212
000130 cb 40 0f 3e f9 32 98 bd 92 50 d5 be 6c 18 aa 3e
       0.1398956 -0.07431597 -0.41663033 0.33221757
000140 81 ee c1 be cf 2f c3 be 71 a6 af 3e 82 9f 43 be
       -0.37877277 -0.38122413 0.34306672 -0.19103816
000150 04 1f 6b 3e 66 39 14 bd 0b e4 4f be 1e bb 3b 3e
       0.2296105 -0.036187552 -0.20301835 0.18333098
000160 7f ac bc be 37 6d 68 3d 95 71 80 bd 7a 38 ab be
       -0.36850354 0.05674478 -0.06271664 -0.33441526
000170 26 40 37 bd ba 04 e2 3e c8 d9 32 3e 3e f7 a0 bd
       -0.04473891 0.4414423 0.1746589 -0.07859658
000180 36 c5 b7 3e 3c 5e b4 3d ce 8e ff 3d 8c 72 f5 be
       0.35892648 0.08807036 0.1247841 -0.47938955
000190 75 b2 d3 3c 05 11 fc be 34 66 0e be be ac 8b be
       0.02584193 -0.49231735 -0.13906175 -0.2728023
0001a0 39 83 94 3e ab d8 31 3e 03 6f 30 3e 9c 5f b0 3e
       0.29006365 0.17367809 0.17229848 0.34447944
0001b0 00 7c c3 be 74 27 a1 bd be 73 a3 3d 3c 00 8c be
       -0.38180542 -0.07868853 0.079810604 -0.2734393
0001c0 7f 65 2e 3e 8c d8 e6 3e e1 f4 86 3e 48 10 89 be
       0.17030905 0.45087087 0.26358703 -0.26770234
0001d0 f0 27 57 3c 07 09 97 be 97 37 20 3e 0e a2 07 bd
       0.01313208 -0.29499075 0.15646206 -0.03311353
0001e0 85 36 c6 3e b0 77 e4 be 21 42 c5 bd 9c 00 fb 3e
       0.3871347 -0.44622564 -0.09631754 0.49023902
0001f0 1e 90 b3 be c5 e4 ee 3e 37 d8 bc 3e 12 85 f9 3e
       -0.3507089 0.46658912 0.3688371 0.48734337
000200 92 5d dd 3e 48 66 f4 be d9 14 c7 3d 0c b2 ee be
       0.4323545 -0.47734284 0.09720773 -0.46620214
000210 18 be af be 29 a4 84 be ef 48 e1 be 74 31 a2 3e
       -0.34324718 -0.25906494 -0.44000956 0.31678355
000220 0b cc 76 3c 89 9b e6 3e a0 5b 14 bd b6 4d 87 be
       0.015063296 0.4504054 -0.036220193 -0.26426476
000230 07 3d 6c 3d a9 58 77 3e 2c 28 ee 3e ae f9 07 be
       0.057675388 0.24154915 0.46515024 -0.13278839
000240 75 18 6d bd 8b b3 6b 3e b6 99 1f 3d 7e 6e a1 3c
       -0.057884652 0.23017709 0.03896495 0.019706007
000250 ff 63 37 3e 3c ef f8 3d 5e 1b 40 bc 9e e7 4d bd
       0.17909239 0.12155005 -0.011725275 -0.050269715
000260 9d 1b eb 3e 4d 78 89 bd d2 b1 69 be 06 61 48 be
       0.45919505 -0.06712399 -0.2282174 -0.19568262
000270 57 87 e2 3e ab e5 d9 be 13 b7 b1 bb 46 33 8f be
       0.4424388 -0.42558035 -0.0054234355 -0.27968806
000280 be 59 c4 3e 9e 81 ca 3d dc e5 d8 3e 70 e1 ab be
       0.38349718 0.09888004 0.4236287 -0.33570433
000290 d3 4d 64 3e 25 ed d6 bc 87 ea a7 be 0e 1e 7e bd
       0.22295313 -0.026236126 -0.32796118 -0.06204038
0002a0 a6 33 c0 3e 1b a8 d1 3e 91 52 77 be 9a d1 3a 3e
       0.37539405 0.40948567 -0.2415259 0.18244019
0002b0 b7 5d ec 3e ea 5f c4 3e 32 35 d0 bd 2e a2 b6 3d
       0.4616525 0.38354427 -0.10166396 0.08917652
0002c0 32 5f 09 3e 89 d2 14 ba af c4 db be da 8f 2f be
       0.1341522 -0.0005677124 -0.42923495 -0.17144719
0002d0 a6 66 eb be db 71 a2 3d 9c e2 3c be 1e eb 9d 3e
       -0.45976752 0.079318725 -0.1844582 0.30843443
0002e0 42 5e 86 be e2 30 31 be 13 45 5a 3d 32 fd 49 3e
       -0.26243788 -0.17303804 0.05328853 0.19725493
0002f0 64 2c 98 be 99 b5 a1 3e 9c 65 cd 3d 76 8d e8 bd
       -0.29721367 0.3158386 0.10029146 -0.113551065
000300 36 5d b5 3e fa e3 84 be 71 cd 49 be 7e ee 96 bc
       0.35422677 -0.25955182 -0.19707276 -0.018424269
000310 72 89 83 3e 4a 3f 67 3e 10 07 df 3e c6 06 0b 3e
       0.256908 0.22582737 0.43560076 0.13576803

spacetimeformer.dec_embedding.val_time_emb.bias f4 [50]
000000 fd ed ac 3e 3b a2 8e bd 80 bf 96 be 86 5d 34 3e
       0.3377532 -0.06964537 -0.29442978 0.17613801
000010 a7 ba a4 3e 26 32 3d 3e c2 76 d1 be dc 74 65 3e
       0.32173654 0.18476161 -0.40910918 0.2240786
000020 48 7e 7e bd be 7b cb 3d 3f 0f 94 be 0c 87 f0 3e
       -0.06213215 0.09935711 -0.28917882 0.46978033
000030 a4 9f c0 3e 08 8b f5 bd 31 2e bc 3e 50 bc b0 be
       0.37621796 -0.11989409 0.3675399 -0.3451867
000040 8a a3 22 3e 15 da ab be 08 cf b6 3e 9d c7 bc 3e
       0.15882698 -0.3356482 0.35704827 0.36871043
000050 35 78 ff be 18 32 d5 3d 06 79 6d 3e 3c 90 d2 bd
       -0.49896398 0.10409945 0.23190698 -0.10281417
000060 20 62 61 bc 01 6d be be 9f 0c 97 3e f7 9f da 3d
       -0.013756305 -0.37192538 0.29501817 0.10675042
000070 e8 92 9c be 37 77 e7 be f2 8b 20 3e b5 06 9f be
       -0.3058083 -0.4520814 0.15678385 -0.31059805
000080 57 f5 95 3e 15 3d 85 3e 78 3f 87 be 1a 2d 0d 3e
       0.29288742 0.26023164 -0.2641561 0.13786736
000090 b2 72 a0 be ae 60 70 3e 09 7f 4a be 33 41 21 be
       -0.31337506 0.2347438 -0.19775023 -0.15747528
0000a0 5e 68 97 be 42 1e 15 3e f2 c5 99 be 5c 2b 0a 3e
       -0.29571813 0.14562324 -0.30033833 0.13493103
0000b0 4b c1 ec 3e 8e a5 37 be bc 3f 99 3e 62 0a f6 bd
       0.4624122 -0.17934248 0.29931438 -0.12013699
0000c0 72 70 06 3e 41 b4 0c 3e
       0.13128832 0.13740636

spacetimeformer.dec_embedding.space_emb.weight f4 [1, 50]
000000 a5 20 20 3f 0e 99 de bd 4f f7 1e 3f 47 9a d8 3f
       0.6254981 -0.108690366 0.6209611 1.6922082
000010 52 aa 74 bf eb 96 69 be 7e 9d c6 be 6a a4 49 3f
       -0.9557239 -0.22811477 -0.38792032 0.787665
000020 f9 17 d8 3e 06 92 a5 bf 2a e1 64 3f 99 6d 82 3e
       0.4220579 -1.2935188 0.89406073 0.2547424
000030 0f be 0d 40 00 39 53 bd f8 a5 16 bf 00 1a 74 3e
       2.2147253 -0.05156803 -0.58847 0.23838043
000040 9a 8b 77 3e e4 93 eb be f3 86 00 3f b7 9c 13 c0
       0.24174348 -0.4601127 0.50205916 -2.30644
000050 28 c3 83 bf 37 2c de bf f1 e4 a8 bf 3d 66 e1 bf
       -1.0293932 -1.7357243 -1.3194867 -1.7609326
000060 ab f3 64 bf d1 d4 79 3f 5a 26 74 be f9 77 83 bd
       -0.8943431 0.9759036 -0.23842755 -0.06419367
000070 e8 59 30 bf 09 13 32 3f 8e e7 f0 3f d3 e2 4c 3f
       -0.68887186 0.69560295 1.8820665 0.80033606
000080 4c f2 6e bd 0c ef 36 bf 57 23 85 bf 3f 78 60 bf
       -0.05833654 -0.71458507 -1.040141 -0.8768348
000090 b7 00 db be 25 04 bf 3f 2d da 99 3e 82 e4 e8 3f
       -0.42773983 1.492314 0.30049267 1.8194735
0000a0 15 49 78 bf 30 37 70 bf b9 99 3b 3f 8d 60 dd 3e
       -0.96986514 -0.9383421 0.7328144 0.43237725
0000b0 a7 1e 54 3f a1 fa 59 3f d0 b8 87 3f ea 84 5c 3e
       0.8285927 0.85148054 1.0603275 0.21535078
0000c0 81 be e5 3d 1f 6d e9 bd
       0.11217976 -0.11397766

spacetimeformer.dec_embedding.given_emb.weight f4 [2, 50]
000000 53 1a 81 3f 08 97 a1 3f b0 6b 63 be 8d e0 01 40
       1.0086159 1.2624216 -0.22209048 2.0293305
000010 4d 97 8a 3f 3a de 0b bf 0b ef 9b bb da 3c 84 bf
       1.0827423 -0.54635966 -0.0047587208 -1.033107
000020 0f e7 a9 3f 3c a9 54 3f a4 6f e2 be d2 95 2c 3f
       1.3273638 0.8307073 -0.442258 0.6741611
000030 c8 92 00 bf 4a 23 9b 3f 9b 30 2c bf 7f 4a b0 bd
       -0.5022397 1.2120144 -0.67261666 -0.08607959
000040 a7 10 90 bd e0 99 10 40 a1 44 8b 3d 1c 53 9f be
       -0.07034426 2.2593918 0.06800199 -0.31118095
000050 d4 d2 da bd a8 a7 ce 3e 96 27 9a bf 6f 7b 75 3f
       -0.106847435 0.40362287 -1.2043331 0.9589147
000060 8f 41 aa 3e ec 95 d1 bf 1a c9 ec 3e 4d 7f de 3f
       0.33253142 -1.6373878 0.46247178 1.7382599
000070 70 7c 93 3e ef 24 41 3f f4 51 48 3f 99 72 d8 bf
       0.28805876 0.7544698 0.7825005 -1.6909972
000080 66 2c 1c 3c 89 b0 8f 3f fa 1d 04 3f dc 0f d9 3d
       0.00953207 1.1225749 0.5160824 0.10598728
000090 d1 e8 63 bf d2 69 8f bf 94 6a 61 3e d0 3a 23 3f
       -0.89027125 -1.1204169 0.22013313 0.63761616
0000a0 d7 2b da bd e1 ef ef be a7 14 00 40 cf c5 97 bd
       -0.10652893 -0.468627 2.0012605 -0.07410776
0000b0 0f 0f 82 bd f6 71 e6 bf f6 b7 61 3e 09 11 a6 3f
       -0.063505284 -1.8003528 0.22042832 1.2973949
0000c0 31 e8 ad bf 58 f0 e3 bf f8 75 d3 bd ba 15 38 3d
       -1.3586484 -1.7807722 -0.10325235 0.044942595
0000d0 cf d4 be 3e c9 da 29 be 49 82 54 3f b5 9d 69 be
       0.37271735 -0.16587366 0.830113 -0.22814067
0000e0 1a 30 d9 bf 52 c0 b3 3e 57 c7 99 3f 81 77 8c 3f
       -1.6967804 0.35107666 1.2013959 1.097397
0000f0 02 18 b4 3f e0 fc 65 3f d8 02 2b be d0 08 98 3f
       1.4069827 0.8983898 -0.16700304 1.1877689
000100 00 ca 27 3f 0e c3 81 3e d8 a9 00 3f c9 70 94 bf
       0.655426 0.25344127 0.5025916 -1.1596919
000110 0d b2 da 3e 34 d7 69 3f 5e d4 78 3f fc ae 8e 3d
       0.42713967 0.91344 0.97199047 0.06966969
000120 d4 14 65 3e 44 16 36 be 0c 53 8f 3f 3d 63 b9 3f
       0.22371227 -0.17781931 1.1197219 1.448341
000130 55 4c 96 3f 65 6d a6 bf 68 d2 21 3e 7f 30 31 3f
       1.1742045 -1.3002135 0.1580292 0.69214624
000140 87 97 d1 bf 52 e4 ff bd 7e d9 47 bf 2e 34 20 3f
       -1.6374367 -0.124947205 -0.7806624 0.6257962
000150 62 e1 91 3f 72 a0 20 be cd de 40 3f 69 d0 05 3e
       1.1396906 -0.15686205 0.75339967 0.13067783
000160 0c c2 86 bf 10 35 a9 3f 1a 05 8f 3e 78 b9 e2 3f
       -1.0527968 1.3219318 0.2793358 1.771285
000170 45 00 d6 3d d3 62 17 bf 0b f0 3d bf 57 86 44 3f
       0.1044927 -0.5913517 -0.741944 0.76767486
000180 98 9a de bf 41 6a 46 be de f2 09 3f 13 c4 3b be
       -1.7390928 -0.1937647 0.5388621 -0.18336515
